Coding_ninza/Projects/Chatboat/data.pth (torch, 5418 bytes, 6 tensors)

l1.weight f4 [8, 54]
00000000: 3760 3ebd 7e7a 883e e3d5 323f dce1 37bd
00000010: a253 253e 53a3 6abe feab ec3e 0f15 be3e
00000020: 0cbc 283f 4d6d c53e b542 73bd dbc4 263f
00000030: 6bab 903e 212d 163f 0f4c 5b3e d1b7 8c3e
00000040: 0a3f 72ba ba6b 44be 1977 ddbd 539b 60be
00000050: 1afb f5bd 0069 76be bed8 64be 6aa9 c8bd
00000060: 08b5 133f 0f89 0b3b 9afe 24be 5550 a13e
00000070: 0c95 f9bd 9162 173e a887 5cbe c69c 333f
00000080: f82a f6bd 1bb1 2c3f 1c4e 803e 117e 833e
00000090: 4002 183b 6086 093f 5735 063f 4dfe f43e
000000a0: f646 a2be 8658 3dbe a3fa b73e e1dd 363e
000000b0: dea1 423f 8f3d 963e bb15 0cbf 894e 97bd
000000c0: 1186 fabd bc9f 1cbe 8199 fb3e 8f7f 21be
000000d0: 69f8 a73e 0719 9d3e 2f04 8cbd d659 15bf
000000e0: bed2 093f 74ed 123f 87af 363f 5c79 45bf
000000f0: 1148 4e3e 4900 ce3e 75a3 e73e 5df2 ea3e
00000100: 1694 0f3f 0938 b73e ed5e 0d3f b6dd 9b3e
00000110: 10a5 8cbe 76f2 bd3e c0df cf3e e774 3fbf
00000120: 9c2e c53e cff1 553f 01ab c5bd f558 5b3f
00000130: fa5f 363f 0d8b 1b3f 27c6 df3e a8e0 f13e
00000140: f5fe 103f 3da4 16bf 4b81 003f dff5 cabe
00000150: 6195 05bf 3e08 913e d0f6 e4bb 488a be3e
00000160: 79c7 67be 8f53 0f3e 0847 013f 7ea3 c63e
00000170: 397b cb3e 0541 a73e 2124 04bf 46ba cb3e
00000180: 1aea aa3e 529e 66be 6009 d73e e072 bbbd
00000190: d0f5 ecbe ea4b 99bc e520 3d3f 3c80 373f
000001a0: c894 1b3e 495b 083f 1561 d03e 026e be3e
000001b0: de90 75be d7c4 e33e 5c9c 40be 7c2a 453e
000001c0: b82d 32be f11b 103f fc0d dcbd 7667 afbe
000001d0: 6dc2 743d 6c38 a3be 156a f93d 739e 0e3f
000001e0: 9f83 313e ecaa 0e3f a289 cb3e 5cbb ad3e
000001f0: fd8b 313d 3894 3f3f f5b9 16be 2249 1a3e
00000200: 8684 91be 1537 023e 26ec be3d 544e 063f
00000210: aa9c 963e 3e85 193e 9e1b bdbe 27cf f63e
00000220: f67c cb3d 8e51 b53e 831c 103f 50a0 143f
00000230: 275e 0dbe 046e 8ebe 5544 f73e 6dee e13e
00000240: 9ed1 debd d144 053d 7876 46bd a6db 32be
00000250: 8c02 f03e 6d6a f0be e79c 0b3f 8e28 da3e
00000260: 315e 903e 68f9 c83e 7eb2 30bf 8002 2bbe
00000270: 7e2e 123e beae c2be 6dd2 e03e 3acd aabe
00000280: 2647 743c d732 54bc 5d8b 243f 4f0c 4d3e
00000290: 3805 5b3e f7b0 99be debc cebe f060 a03e
000002a0: aa57 c73d c583 ed3d c650 02bd e62e 0a3d
000002b0: 155a b7be 8a23 4bbe f057 7ebe 0b5c 2a3c
000002c0: 31a8 41bd f5e6 1ebe 620f a7be 451b f53e
000002d0: 4738 d7bd 9afb 30bf cce0 1c3f c63a 27bf
000002e0: 9fb4 32bf 1617 85be 9e77 ddbb c0fc 85be
000002f0: 2a37 9fbe 0463 9fbe d137 8a3d 9827 9abe
00000300: 6beb 843e 5a60 99bd fcab da3e 7713 563e
00000310: 176a 17be 6400 26bd 2b46 c23d 7c2e 913d
00000320: e91c 0f3e b763 523e 0e15 683e 4b93 2bbe
00000330: 3b20 0bbe 0e70 6d3d 5e2f 1cbd f1bb 3cbe
00000340: 7092 503f f619 163f 3dc8 00be 9c37 b6be
00000350: 40dc 4bbd d967 2bbe 2696 713d 36b8 c13e
00000360: 188f 2e3e a1ef 9d3b bd60 fdbe 4f43 d03e
00000370: 0c4a ff3d 6776 213f effe c3bd 2144 a5be
00000380: f467 0bbf 8c93 e8be c271 9a3e 1069 f13d
00000390: e823 323e bb59 943b 6a1c 16be 9d00 f73c
000003a0: e8cf b73e 979e 3e3f 8743 b13e bdaa 423e
000003b0: a7ec c83d 7393 623e c426 383e 855d 8c3e
000003c0: dd15 07be 722b 463e 86c6 203f 2981 02be
000003d0: 878d 503e b35a 34be 4f49 043f 877b 173e
000003e0: a146 ea3d 0963 2cbf bcb8 22bd 0784 223e
000003f0: e8e5 a93e 1f05 26bf ab52 4ebe 73b1 67be
-0.046478476 0.26655954 0.69857615 -0.04489313 0.16145185 -0.22913866 0.4622497 0.3712544
0.65911937 0.38559952 -0.05938979 0.6514413 0.28255782 0.5866261 0.21415733 0.2748399
-0.0009240961 -0.1918172 -0.10813732 -0.21934251 -0.120107844 -0.24063492 -0.22348306 -0.09797938
0.57698107 0.002129141 -0.16112748 0.315066 -0.121866316 0.14783694 -0.21536124 0.7016109
-0.120199144 0.6745774 0.25059593 0.2568212 0.00231947 0.53720665 0.5242514 0.47850266
-0.31694764 -0.184908 0.35933408 0.17858078 0.7602824 0.2934384 -0.5472066 -0.07388026
-0.122326024 -0.15295309 0.49140552 -0.15771316 0.3280671 0.30683157 -0.068367355 -0.58340204
0.5383719 0.57393575 0.71361583 -0.77138305 0.20144679 0.40234593 0.45241895 0.45888034
0.56085336 0.3578494 0.5522297 0.3044259 -0.27469683 0.37099046 0.40600395 -0.74787754
0.38512123 0.83572096 -0.09651757 0.8568261 0.712402 0.6075905 0.43705866 0.47241712
0.56639034 -0.5884436 0.50197285 -0.3964071 -0.5218106 0.283266 -0.00698743 0.37214875
-0.22634687 0.13996719 0.5049901 0.3879661 0.3974245 0.32666793 -0.5161763 0.39790553
0.3338173 -0.22521332 0.4199934 -0.0915277 -0.4628129 -0.018712956 0.7387832 0.71680045
0.15193474 0.5326429 0.40699068 0.37193304 -0.23981044 0.44486114 -0.18809646 0.19254488
-0.17400253 0.56292635 -0.10744855 -0.34258622 0.05975573 -0.31878984 0.12178437 0.55710524
0.17335366 0.55729556 0.39753443 0.33932006 0.043346394 0.7483554 -0.14719374 0.1506696
-0.2842142 0.12716325 0.093223855 0.5246327 0.294164 0.14992234 -0.36935133 0.4820492
0.09935944 0.35413784 0.56293505 0.5805712 -0.13805448 -0.2781831 0.4829432 0.44127217
-0.10879825 0.03253633 -0.048452824 -0.17466602 0.46876943 -0.46956196 0.5453629 0.42609066
0.28196862 0.39252782 -0.6902236 -0.16700172 0.14275548 -0.38023943 0.43910542 -0.333597
0.014909541 -0.012951574 0.6427515 0.20024227 0.2138871 -0.30017826 -0.4037847 0.31323957
0.097335175 0.11597399 -0.031815313 0.033736132 -0.35810915 -0.19837776 -0.24838233 0.010397921
-0.04727954 -0.1551779 -0.32628924 0.47872368 -0.10508781 -0.69133914 0.6128051 -0.65324056
-0.69806856 -0.25994176 -0.0067586442 -0.26169395 -0.31096774 -0.3113023 0.067489274 -0.30108333
0.2596086 -0.07489081 0.4270934 0.20905863 -0.14786564 -0.040527716 0.0948604 0.07088944
0.13975872 0.2054585 0.22664282 -0.16755407 -0.13586514 0.05796819 -0.03813111 -0.18431069
0.81473446 0.58633363 -0.12576385 -0.35589302 -0.049770594 -0.16738833 0.058981083 0.37835854
0.17046773 0.0048198258 -0.49487868 0.40676352 0.12465295 0.6307129 -0.09570109 -0.3227854
-0.54455495 -0.4542507 0.30164915 0.11787617 0.1739651 0.0045272983 -0.14659277 0.03015166
0.35900807 0.7446074 0.34621832 0.19010444 0.09810763 0.2212656 0.17983538 0.274151
-0.13191934 0.1935251 0.6280292 -0.12744583 0.20366488 -0.17612724 0.5167436 0.14793216
0.11439253 -0.67338616 -0.039726958 0.15870677 0.33183217 -0.64851564 -0.20148723 -0.22626285

l1.bias f4 [8]
00000000: c239 763e b459 513f 2cb5 303f 2fa6 323f
00000010: 0935 553f ffa6 543e ae5f 083f cc24 323f
0.2404547 0.817775 0.69026446 0.69784826 0.8328405 0.20766829 0.53270996 0.695874

l2.weight f4 [8, 8]
00000000: d5b0 93be 3bde 63be be2e 6ebe 4dad 86be
00000010: 239b 9abe 70b1 d33d 50b1 75be 5791 a7be
00000020: ad5d 523f d195 b13f 4ccb 14bf 9aa2 2f3e
00000030: 7c96 1a3d e008 ed3d 825b 01be b04a 383c
00000040: 46d2 76bf 3e45 9f3e 4d4a 46bd 31f2 983f
00000050: 1f9e 963f f58f 76bf fcb8 093f 8a8c 803f
00000060: e017 0abe e508 953f 7b88 6b3f da3b 5abf
00000070: c240 9a3f 8f1c 73bf 6204 6bbf 925d 6d3e
00000080: 2795 bc3e 3552 63bf ddaa 973f d295 f03e
00000090: 5a36 1b3f 1f9e 143f 137e 053f b9d7 dbbe
000000a0: 46b2 c6be 1906 6d3e 1571 9dbe 4a04 3d3f
000000b0: 6368 08bf cf8d 9c3e 9c6f 9f3f 323d b93f
000000c0: f54b 853f 6fdc ff3e 3328 703f cc78 84be
000000d0: dd48 43bf 2068 743f d8b3 cd3e 7b4a 873f
000000e0: 1ee4 6abf 2af4 e43d e674 4c3f a68b 88bf
000000f0: 497e 75bd c965 98be be8a d03e b17e 433f
-0.2884585 -0.22252743 -0.23260018 -0.26304093 -0.30196485 0.10336578 -0.2399342 -0.32728073
0.8217419 1.3873845 -0.58122706 0.17151871 0.03774117 0.115739584 -0.12632564 0.011248276
-0.964146 0.31107515 -0.048410702 1.1948911 1.1767005 -0.9631341 0.5379789 1.0042889
-0.1348567 1.1643339 0.9200513 -0.85247576 1.2051013 -0.9496545 -0.9180356 0.23180225
0.36832544 -0.8879731 1.1849018 0.46989304 0.6062981 0.58053774 0.521455 -0.4293802
-0.38807887 0.23146857 -0.30750337 0.7383467 -0.5328428 0.3057694 1.2455935 1.44718
1.0413805 0.49972865 0.9381134 -0.2587341 -0.76283056 0.9547138 0.40176272 1.0569605
-0.9175433 0.11179383 0.7986587 -1.0667617 -0.059934888 -0.29765156 0.40730852 0.7636519

l2.bias f4 [8]
00000000: e85e 7fbe a2d0 003f 2eca 673f f791 373f
00000010: 1d43 c63e 8281 133f 3d61 1fbd 66b3 a4bd
-0.24938548 0.5031835 0.90542877 0.717071 0.38723078 0.5761949 -0.038911093 -0.0804203

l3.weight f4 [7, 8]
00000000: 00df 0a3b b400 ae3e bb12 8ebf 8364 763e
00000010: c837 75be 83fc 2ebf 5d30 c73e 02d1 72bf
00000020: e892 423d 9e90 61bf a840 70bf c0b1 90bf
00000030: 93e6 2c3f c634 c33d b382 143f 29d2 923f
00000040: b9f8 2bbe 29a6 85bf 3fb0 e93e 9e88 883e
00000050: 73a8 183f b234 0dbf 1e55 46bf 4828 bebf
00000060: 8408 ff3d bc27 5ebe 2b2d a13d 7552 033f
00000070: e75c d9bf fc7e 4f3e 4669 9abd 8449 c13f
00000080: 9f26 38be db5c 263f c858 863e 4b85 453f
00000090: e3ef a5bf 896c a5bf 007b e0bf 0bab afbf
000000a0: 4a7c 43be 9f08 123f 9b22 d9be 8646 91bf
000000b0: 11f6 92bf a1e2 983e 5f5a 373f 71f1 a1bf
000000c0: 4890 70be 6cfa a6bd dee1 263f db14 b7bf
000000d0: 787d 6fbf d074 503f dacf f7be eb6c 88bf
0.0021190047 0.3398491 -1.1099466 0.2406178 -0.2394706 -0.6835405 0.38904086 -0.9485017
0.047503382 -0.88111293 -0.9384866 -1.1304245 0.6753933 0.0953155 0.5801193 1.1470386
-0.16794099 -1.0441333 0.45642278 0.2666673 0.59632033 -0.5515853 -0.7747363 -1.4856043
0.12452796 -0.21694845 0.07869943 0.51297694 -1.6981477 0.20263284 -0.075396106 1.510056
-0.17983483 0.64985436 0.2623961 0.77156514 -1.2963833 -1.2923747 -1.7537537 -1.3724073
-0.19090381 0.57044405 -0.42409214 -1.1349647 -1.1481344 0.29860404 0.7162227 -1.2651807
-0.23492539 -0.08153233 0.65188396 -1.430324 -0.93550825 0.8142824 -0.48400766 -1.0658239

l3.bias f4 [7]
00000000: 2677 173d 9608 71bc 0407 1f3e e4be 4d3d
00000010: 8400 e2bd 0530 45be 0725 36be
0.036978863 -0.01471152 0.1553002 0.050230876 -0.110352546 -0.19256599 -0.17787562
